[2019-03-12 21:55:53,323 INFO]  * src vocab size = 50004
[2019-03-12 21:55:53,323 INFO]  * tgt vocab size = 50004
[2019-03-12 21:55:53,323 INFO] Building model...
[2019-03-12 21:55:59,713 INFO] NMTModel(
  (encoder): TransformerEncoder(
    (embeddings): Embeddings(
      (make_embedding): Sequential(
        (emb_luts): Elementwise(
          (0): Embedding(50004, 512, padding_idx=1)
        )
        (pe): PositionalEncoding(
          (dropout): Dropout(p=0.2)
        )
      )
    )
    (transformer): ModuleList(
      (0): TransformerEncoderLayer(
        (self_attn): MultiHeadedAttention(
          (linear_keys): Linear(in_features=512, out_features=512, bias=True)
          (linear_values): Linear(in_features=512, out_features=512, bias=True)
          (linear_query): Linear(in_features=512, out_features=512, bias=True)
          (softmax): Softmax()
          (dropout): Dropout(p=0.2)
          (final_linear): Linear(in_features=512, out_features=512, bias=True)
        )
        (feed_forward): PositionwiseFeedForward(
          (w_1): Linear(in_features=512, out_features=2048, bias=True)
          (w_2): Linear(in_features=2048, out_features=512, bias=True)
          (layer_norm): LayerNorm(torch.Size([512]), eps=1e-06, elementwise_affine=True)
          (dropout_1): Dropout(p=0.2)
          (relu): ReLU()
          (dropout_2): Dropout(p=0.2)
        )
        (layer_norm): LayerNorm(torch.Size([512]), eps=1e-06, elementwise_affine=True)
        (dropout): Dropout(p=0.2)
      )
      (1): TransformerEncoderLayer(
        (self_attn): MultiHeadedAttention(
          (linear_keys): Linear(in_features=512, out_features=512, bias=True)
          (linear_values): Linear(in_features=512, out_features=512, bias=True)
          (linear_query): Linear(in_features=512, out_features=512, bias=True)
          (softmax): Softmax()
          (dropout): Dropout(p=0.2)
          (final_linear): Linear(in_features=512, out_features=512, bias=True)
        )
        (feed_forward): PositionwiseFeedForward(
          (w_1): Linear(in_features=512, out_features=2048, bias=True)
          (w_2): Linear(in_features=2048, out_features=512, bias=True)
          (layer_norm): LayerNorm(torch.Size([512]), eps=1e-06, elementwise_affine=True)
          (dropout_1): Dropout(p=0.2)
          (relu): ReLU()
          (dropout_2): Dropout(p=0.2)
        )
        (layer_norm): LayerNorm(torch.Size([512]), eps=1e-06, elementwise_affine=True)
        (dropout): Dropout(p=0.2)
      )
      (2): TransformerEncoderLayer(
        (self_attn): MultiHeadedAttention(
          (linear_keys): Linear(in_features=512, out_features=512, bias=True)
          (linear_values): Linear(in_features=512, out_features=512, bias=True)
          (linear_query): Linear(in_features=512, out_features=512, bias=True)
          (softmax): Softmax()
          (dropout): Dropout(p=0.2)
          (final_linear): Linear(in_features=512, out_features=512, bias=True)
        )
        (feed_forward): PositionwiseFeedForward(
          (w_1): Linear(in_features=512, out_features=2048, bias=True)
          (w_2): Linear(in_features=2048, out_features=512, bias=True)
          (layer_norm): LayerNorm(torch.Size([512]), eps=1e-06, elementwise_affine=True)
          (dropout_1): Dropout(p=0.2)
          (relu): ReLU()
          (dropout_2): Dropout(p=0.2)
        )
        (layer_norm): LayerNorm(torch.Size([512]), eps=1e-06, elementwise_affine=True)
        (dropout): Dropout(p=0.2)
      )
      (3): TransformerEncoderLayer(
        (self_attn): MultiHeadedAttention(
          (linear_keys): Linear(in_features=512, out_features=512, bias=True)
          (linear_values): Linear(in_features=512, out_features=512, bias=True)
          (linear_query): Linear(in_features=512, out_features=512, bias=True)
          (softmax): Softmax()
          (dropout): Dropout(p=0.2)
          (final_linear): Linear(in_features=512, out_features=512, bias=True)
        )
        (feed_forward): PositionwiseFeedForward(
          (w_1): Linear(in_features=512, out_features=2048, bias=True)
          (w_2): Linear(in_features=2048, out_features=512, bias=True)
          (layer_norm): LayerNorm(torch.Size([512]), eps=1e-06, elementwise_affine=True)
          (dropout_1): Dropout(p=0.2)
          (relu): ReLU()
          (dropout_2): Dropout(p=0.2)
        )
        (layer_norm): LayerNorm(torch.Size([512]), eps=1e-06, elementwise_affine=True)
        (dropout): Dropout(p=0.2)
      )
    )
    (layer_norm): LayerNorm(torch.Size([512]), eps=1e-06, elementwise_affine=True)
    (conv1d): Conv1d(512, 512, kernel_size=(3,), stride=(3,))
    (mask_pool): MaxPool1d(kernel_size=3, stride=3, padding=0, dilation=1, ceil_mode=False)
  )
  (decoder): TransformerDecoder(
    (embeddings): Embeddings(
      (make_embedding): Sequential(
        (emb_luts): Elementwise(
          (0): Embedding(50004, 512, padding_idx=1)
        )
        (pe): PositionalEncoding(
          (dropout): Dropout(p=0.2)
        )
      )
    )
    (transformer_layers): ModuleList(
      (0): TransformerDecoderLayer(
        (self_attn): MultiHeadedAttention(
          (linear_keys): Linear(in_features=512, out_features=512, bias=True)
          (linear_values): Linear(in_features=512, out_features=512, bias=True)
          (linear_query): Linear(in_features=512, out_features=512, bias=True)
          (softmax): Softmax()
          (dropout): Dropout(p=0.2)
          (final_linear): Linear(in_features=512, out_features=512, bias=True)
        )
        (context_attn): MultiHeadedAttention(
          (linear_keys): Linear(in_features=512, out_features=512, bias=True)
          (linear_values): Linear(in_features=512, out_features=512, bias=True)
          (linear_query): Linear(in_features=512, out_features=512, bias=True)
          (softmax): Softmax()
          (dropout): Dropout(p=0.2)
          (final_linear): Linear(in_features=512, out_features=512, bias=True)
        )
        (feed_forward): PositionwiseFeedForward(
          (w_1): Linear(in_features=512, out_features=2048, bias=True)
          (w_2): Linear(in_features=2048, out_features=512, bias=True)
          (layer_norm): LayerNorm(torch.Size([512]), eps=1e-06, elementwise_affine=True)
          (dropout_1): Dropout(p=0.2)
          (relu): ReLU()
          (dropout_2): Dropout(p=0.2)
        )
        (layer_norm_1): LayerNorm(torch.Size([512]), eps=1e-06, elementwise_affine=True)
        (layer_norm_2): LayerNorm(torch.Size([512]), eps=1e-06, elementwise_affine=True)
        (drop): Dropout(p=0.2)
      )
      (1): TransformerDecoderLayer(
        (self_attn): MultiHeadedAttention(
          (linear_keys): Linear(in_features=512, out_features=512, bias=True)
          (linear_values): Linear(in_features=512, out_features=512, bias=True)
          (linear_query): Linear(in_features=512, out_features=512, bias=True)
          (softmax): Softmax()
          (dropout): Dropout(p=0.2)
          (final_linear): Linear(in_features=512, out_features=512, bias=True)
        )
        (context_attn): MultiHeadedAttention(
          (linear_keys): Linear(in_features=512, out_features=512, bias=True)
          (linear_values): Linear(in_features=512, out_features=512, bias=True)
          (linear_query): Linear(in_features=512, out_features=512, bias=True)
          (softmax): Softmax()
          (dropout): Dropout(p=0.2)
          (final_linear): Linear(in_features=512, out_features=512, bias=True)
        )
        (feed_forward): PositionwiseFeedForward(
          (w_1): Linear(in_features=512, out_features=2048, bias=True)
          (w_2): Linear(in_features=2048, out_features=512, bias=True)
          (layer_norm): LayerNorm(torch.Size([512]), eps=1e-06, elementwise_affine=True)
          (dropout_1): Dropout(p=0.2)
          (relu): ReLU()
          (dropout_2): Dropout(p=0.2)
        )
        (layer_norm_1): LayerNorm(torch.Size([512]), eps=1e-06, elementwise_affine=True)
        (layer_norm_2): LayerNorm(torch.Size([512]), eps=1e-06, elementwise_affine=True)
        (drop): Dropout(p=0.2)
      )
      (2): TransformerDecoderLayer(
        (self_attn): MultiHeadedAttention(
          (linear_keys): Linear(in_features=512, out_features=512, bias=True)
          (linear_values): Linear(in_features=512, out_features=512, bias=True)
          (linear_query): Linear(in_features=512, out_features=512, bias=True)
          (softmax): Softmax()
          (dropout): Dropout(p=0.2)
          (final_linear): Linear(in_features=512, out_features=512, bias=True)
        )
        (context_attn): MultiHeadedAttention(
          (linear_keys): Linear(in_features=512, out_features=512, bias=True)
          (linear_values): Linear(in_features=512, out_features=512, bias=True)
          (linear_query): Linear(in_features=512, out_features=512, bias=True)
          (softmax): Softmax()
          (dropout): Dropout(p=0.2)
          (final_linear): Linear(in_features=512, out_features=512, bias=True)
        )
        (feed_forward): PositionwiseFeedForward(
          (w_1): Linear(in_features=512, out_features=2048, bias=True)
          (w_2): Linear(in_features=2048, out_features=512, bias=True)
          (layer_norm): LayerNorm(torch.Size([512]), eps=1e-06, elementwise_affine=True)
          (dropout_1): Dropout(p=0.2)
          (relu): ReLU()
          (dropout_2): Dropout(p=0.2)
        )
        (layer_norm_1): LayerNorm(torch.Size([512]), eps=1e-06, elementwise_affine=True)
        (layer_norm_2): LayerNorm(torch.Size([512]), eps=1e-06, elementwise_affine=True)
        (drop): Dropout(p=0.2)
      )
      (3): TransformerDecoderLayer(
        (self_attn): MultiHeadedAttention(
          (linear_keys): Linear(in_features=512, out_features=512, bias=True)
          (linear_values): Linear(in_features=512, out_features=512, bias=True)
          (linear_query): Linear(in_features=512, out_features=512, bias=True)
          (softmax): Softmax()
          (dropout): Dropout(p=0.2)
          (final_linear): Linear(in_features=512, out_features=512, bias=True)
        )
        (context_attn): MultiHeadedAttention(
          (linear_keys): Linear(in_features=512, out_features=512, bias=True)
          (linear_values): Linear(in_features=512, out_features=512, bias=True)
          (linear_query): Linear(in_features=512, out_features=512, bias=True)
          (softmax): Softmax()
          (dropout): Dropout(p=0.2)
          (final_linear): Linear(in_features=512, out_features=512, bias=True)
        )
        (feed_forward): PositionwiseFeedForward(
          (w_1): Linear(in_features=512, out_features=2048, bias=True)
          (w_2): Linear(in_features=2048, out_features=512, bias=True)
          (layer_norm): LayerNorm(torch.Size([512]), eps=1e-06, elementwise_affine=True)
          (dropout_1): Dropout(p=0.2)
          (relu): ReLU()
          (dropout_2): Dropout(p=0.2)
        )
        (layer_norm_1): LayerNorm(torch.Size([512]), eps=1e-06, elementwise_affine=True)
        (layer_norm_2): LayerNorm(torch.Size([512]), eps=1e-06, elementwise_affine=True)
        (drop): Dropout(p=0.2)
      )
    )
    (layer_norm): LayerNorm(torch.Size([512]), eps=1e-06, elementwise_affine=True)
    (mask_pool): MaxPool1d(kernel_size=3, stride=3, padding=0, dilation=1, ceil_mode=False)
  )
  (generator): CopyGenerator(
    (linear): Linear(in_features=512, out_features=50004, bias=True)
    (linear_copy): Linear(in_features=512, out_features=1, bias=True)
    (conv_transpose): ConvTranspose1d(1, 1, kernel_size=(3,), stride=(3,))
    (conv_transpose_pad1): ConvTranspose1d(1, 1, kernel_size=(3,), stride=(3,), output_padding=(1,))
    (conv_transpose_pad2): ConvTranspose1d(1, 1, kernel_size=(3,), stride=(3,), output_padding=(2,))
  )
)
[2019-03-12 21:55:59,715 INFO] encoder: 38999552
[2019-03-12 21:55:59,716 INFO] decoder: 42469729
[2019-03-12 21:55:59,716 INFO] * number of parameters: 81469281
[2019-03-12 21:55:59,718 INFO] Starting training on GPU: [0, 1]
[2019-03-12 21:55:59,718 INFO] Start training loop and validate every 10000 steps...
[2019-03-12 21:56:35,567 INFO] Loading dataset from data/cnndm/CNNDM.train.0.pt, number of examples: 99886
…
